networks/AutoTaxi/AutoTaxi_64Relus_200Epochs_OneOutput.onnx (onnx, 20175 bytes, 7 tensors)

W0 f4 [32, 128]
000000 f6 17 50 3d 3a e6 7c 3d 0c 9a 81 bd 4f 27 34 3d
       0.0508041 0.061743 -0.0632821 0.0439828
000010 d2 bb 00 bb df 51 a3 bc 5f 9b 0d bd 5d ba f2 bb
       -0.00196432 -0.0199365 -0.034572 -0.00740747
000020 00 00 00 00 00 00 00 00 00 00 00 00 00 00 00 00
       0.0 0.0 0.0 0.0
000030 00 00 00 00 00 00 00 00 00 00 00 00 00 00 00 00
       0.0 0.0 0.0 0.0
000040 30 46 09 3d c9 66 58 3d d2 b2 64 3d 19 8c 81 3d
       0.0335142 0.0528324 0.0558346 0.0632555
000050 42 16 b3 3c 54 b1 8c bd b6 e6 7d bd 21 b7 3a 3c
       0.0218612 -0.0686976 -0.0619876 0.0113962
000060 00 00 00 00 00 00 00 00 00 00 00 00 00 00 00 00
       0.0 0.0 0.0 0.0
000070 00 00 00 00 00 00 00 00 00 00 00 00 00 00 00 00
       0.0 0.0 0.0 0.0
000080 0c 72 bc 3b 0b 29 5f bd eb 59 8b bd 20 b3 b3 3c
       0.0057509 -0.0544825 -0.0680426 0.021936
000090 ba aa 42 bd 3b 95 22 bd 11 fc 8f bd 33 ff 93 bd
       -0.0475261 -0.0396931 -0.070305 -0.0722641
0000a0 00 00 00 00 00 00 00 00 00 00 00 00 00 00 00 00
       0.0 0.0 0.0 0.0
0000b0 00 00 00 00 00 00 00 00 00 00 00 00 00 00 00 00
       0.0 0.0 0.0 0.0
0000c0 b6 d4 46 bd f7 22 35 bd 21 67 eb 3c 0f bf 36 bd
       -0.0485427 -0.0442228 0.0287357 -0.0446158
0000d0 6a c1 cb 3c ba 09 28 3d 12 6d a6 bb ad 9d 0d 3c
       0.0248725 0.0410249 -0.00507892 0.00864355
0000e0 00 00 00 00 00 00 00 00 00 00 00 00 00 00 00 00
       0.0 0.0 0.0 0.0
0000f0 00 00 00 00 00 00 00 00 00 00 00 00 00 00 00 00
       0.0 0.0 0.0 0.0
000100 ad 84 ae bc 3d ca 12 bd 71 60 68 3d 56 9a 19 bd
       -0.0213035 -0.0358374 0.0567326 -0.0375007
000110 0b 74 87 3d 3b ad 16 3d 29 59 b3 bc 09 bf f9 bc
       0.0661393 0.0367863 -0.0218931 -0.0304866
000120 00 00 00 00 00 00 00 00 00 00 00 00 00 00 00 00
       0.0 0.0 0.0 0.0
000130 00 00 00 00 00 00 00 00 00 00 00 00 00 00 00 00
       0.0 0.0 0.0 0.0
000140 a8 0c d2 bc f9 ee 1e 3c 34 b6 1c bd 38 78 50 bd
       -0.0256408 0.00970053 -0.0382597 -0.0508959
000150 71 b5 29 bc 79 7a 80 bc 1b 08 8e 3d 88 0b 05 3d
       -0.0103582 -0.0156834 0.0693514 0.0324817
000160 00 00 00 00 00 00 00 00 00 00 00 00 00 00 00 00
       0.0 0.0 0.0 0.0
000170 00 00 00 00 00 00 00 00 00 00 00 00 00 00 00 00
       0.0 0.0 0.0 0.0
000180 9e 23 72 3c 4f 99 f6 bc 14 99 54 bd 2a 1b 76 bd
       0.014779 -0.0301024 -0.0519038 -0.0600845
000190 07 f8 24 bd b2 a4 37 bc 0e 32 89 bd ce 6b 91 bd
       -0.0402756 -0.0112087 -0.06699 -0.0710064
0001a0 00 00 00 00 00 00 00 00 00 00 00 00 00 00 00 00
       0.0 0.0 0.0 0.0
0001b0 00 00 00 00 00 00 00 00 00 00 00 00 00 00 00 00
       0.0 0.0 0.0 0.0
0001c0 93 bd 4f bd 1b 8a 31 3d 13 df 8f 3d 6e ab 94 bd
       -0.0507179 0.0433446 0.0702497 -0.0725926
0001d0 cf 81 45 3d 48 03 93 bc 52 ed 83 bd ae a4 cf bb
       0.0482195 -0.0179459 -0.0644175 -0.00633677
0001e0 00 00 00 00 00 00 00 00 00 00 00 00 00 00 00 00
       0.0 0.0 0.0 0.0
0001f0 00 00 00 00 00 00 00 00 00 00 00 00 00 00 00 00
       0.0 0.0 0.0 0.0
000200 8b df 84 be 7f 33 11 be b8 ad 7d 3e 23 d9 63 3e
       -0.259518 -0.141798 0.247733 0.222508
000210 41 72 61 bd 17 65 b6 bd 3d 10 09 3e 5c 77 67 bf
       -0.0550406 -0.08906 0.133851 -0.904165
000220 00 00 00 00 00 00 00 00 00 00 00 00 00 00 00 00
       0.0 0.0 0.0 0.0
000230 00 00 00 00 00 00 00 00 00 00 00 00 00 00 00 00
       0.0 0.0 0.0 0.0
000240 2e 39 26 3f 03 d2 32 3f ca a3 27 3f f0 6b d4 3e
       0.64931 0.698517 0.654843 0.414886
000250 9d 0d a9 3d 68 59 1f 3f 32 77 89 3f f5 63 53 3e
       0.0825455 0.622458 1.07395 0.206436
000260 00 00 00 00 00 00 00 00 00 00 00 00 00 00 00 00
       0.0 0.0 0.0 0.0
000270 00 00 00 00 00 00 00 00 00 00 00 00 00 00 00 00
       0.0 0.0 0.0 0.0
000280 9b 8e 98 3e 8b 13 a4 3d d3 43 7e 3d a9 a5 69 3e
       0.297963 0.0801154 0.0620764 0.228171
000290 b4 23 10 3d 16 de 45 be 0b 7d 10 3e 07 24 1d 3f
       0.0351903 -0.19323 0.141102 0.613831
0002a0 00 00 00 00 00 00 00 00 00 00 00 00 00 00 00 00
       0.0 0.0 0.0 0.0
0002b0 00 00 00 00 00 00 00 00 00 00 00 00 00 00 00 00
       0.0 0.0 0.0 0.0
0002c0 9b ac a1 3e dd b2 23 3e 39 0f 67 3e 41 65 c4 3e
       0.31577 0.159862 0.225644 0.383585
0002d0 e4 a2 82 3e 79 1f 07 3e 60 ca 40 be 02 82 d9 bd
       0.255149 0.131956 -0.188272 -0.106205
0002e0 00 00 00 00 00 00 00 00 00 00 00 00 00 00 00 00
       0.0 0.0 0.0 0.0
0002f0 00 00 00 00 00 00 00 00 00 00 00 00 00 00 00 00
       0.0 0.0 0.0 0.0
000300 41 9a b9 3e bc 5b 09 3e 35 9a 8c 3e d5 3c cc 3d
       0.362505 0.134139 0.274614 0.0997254
000310 9b f9 1a bd a5 7a 9d 3a 25 d2 51 bd 51 67 6e be
       -0.0378357 0.00120147 -0.0512258 -0.232816
000320 00 00 00 00 00 00 00 00 00 00 00 00 00 00 00 00
       0.0 0.0 0.0 0.0
000330 00 00 00 00 00 00 00 00 00 00 00 00 00 00 00 00
       0.0 0.0 0.0 0.0
000340 51 da 7b 3e 06 11 b9 3d d3 a5 5a bc 89 fc a7 3b
       0.24595 0.0903645 -0.0133452 0.00512654
000350 59 03 4a 3d 55 aa 6b b9 c3 44 e8 bc 88 e9 8c 3b
       0.0493196 -0.000224748 -0.0283531 0.0043003
000360 00 00 00 00 00 00 00 00 00 00 00 00 00 00 00 00
       0.0 0.0 0.0 0.0
000370 00 00 00 00 00 00 00 00 00 00 00 00 00 00 00 00
       0.0 0.0 0.0 0.0
000380 b2 d7 db 3d 60 34 50 bb 0b 6f 20 bd 48 77 a6 3d
       0.107345 -0.00317695 -0.0391684 0.0812822
000390 95 70 d7 bc 78 92 9d 3b ab 4f 63 bd 4f c0 90 bd
       -0.0262988 0.00480872 -0.0554959 -0.0706793
0003a0 00 00 00 00 00 00 00 00 00 00 00 00 00 00 00 00
       0.0 0.0 0.0 0.0
0003b0 00 00 00 00 00 00 00 00 00 00 00 00 00 00 00 00
       0.0 0.0 0.0 0.0
0003c0 a3 32 bf 3d 91 d2 cc 3d 4b 85 62 3d 8b 8a 28 3e
       0.0933583 0.100011 0.0553029 0.164591
0003d0 03 57 3e 3d 5f 25 fe 3b e6 b0 5b bd c1 27 8c bc
       0.0464697 0.00775592 -0.0536355 -0.0171088
0003e0 00 00 00 00 00 00 00 00 00 00 00 00 00 00 00 00
       0.0 0.0 0.0 0.0
0003f0 00 00 00 00 00 00 00 00 00 00 00 00 00 00 00 00
       0.0 0.0 0.0 0.0

B0 f4 [32]
000000 00 00 00 80 80 99 a7 be 00 00 00 80 8d 99 14 be
       -0.0 -0.327343 -0.0 -0.145117
000010 73 93 83 bb 30 2d 6a 3e aa ba 53 3f 00 00 00 80
       -0.00401538 0.228688 0.827067 -0.0
000020 f7 a5 93 bd 30 68 81 be 78 58 cd bb fc 8d 36 3e
       -0.0720939 -0.252748 -0.00626665 0.178276
000030 49 fa 0f bc 3b 01 cd 3d e0 63 d8 3e f6 35 5c bb
       -0.0087877 0.1001 0.422637 -0.00336015
000040 00 00 00 80 80 99 a7 be 00 00 00 80 8d 99 14 be
       -0.0 -0.327343 -0.0 -0.145117
000050 73 93 83 bb 30 2d 6a 3e aa ba 53 3f 00 00 00 80
       -0.00401538 0.228688 0.827067 -0.0
000060 f7 a5 93 bd 30 68 81 be 78 58 cd bb fc 8d 36 3e
       -0.0720939 -0.252748 -0.00626665 0.178276
000070 49 fa 0f bc 3b 01 cd 3d e0 63 d8 3e f6 35 5c bb
       -0.0087877 0.1001 0.422637 -0.00336015

W1 f4 [16, 32]
000000 fd 6b 19 be 22 c6 4b 3e 87 49 9d bd fa 9a c5 be
       -0.149826 0.198998 -0.0768004 -0.385948
000010 64 03 09 3e da 55 48 3d ad 51 17 c0 09 e0 5a 38
       0.133802 0.04891 -2.36436 5.21839e-05
000020 96 e7 89 3f 18 06 8c 3e 08 b0 78 be 89 07 a9 c0
       1.07738 0.273484 -0.242859 -5.28217
000030 7f a4 78 3e 80 ee bb be cc 97 8f bf c3 ef 0b bc
       0.242815 -0.367054 -1.12182 -0.00854105
000040 c6 08 f6 3b 3f 94 a2 3a 3a 02 90 be ac ca 96 3e
       0.00750837 0.00124038 -0.281267 0.294515
000050 d7 c1 61 be cf c0 80 be 7b dc 6b bf 30 f4 28 3e
       -0.220466 -0.251471 -0.921333 0.164994
000060 12 f5 52 be 41 63 76 3e 7e 39 ab 3e 92 5c 14 c0
       -0.206013 0.240613 0.334423 -2.31815
000070 07 b4 d4 3d 31 ee a6 be ed 10 57 bf 3b 1d a8 3e
       0.103859 -0.326036 -0.840102 0.328348
000080 3a e8 42 be 66 85 e2 3e c9 c9 54 3e 93 39 96 3c
       -0.190339 0.442424 0.207801 0.018338
000090 66 9f 07 3e 18 cc 0f 3e 70 5c 06 be a1 9e de 3d
       0.132444 0.140427 -0.131212 0.108701
0000a0 80 44 73 be fb ad 7d be 20 31 10 bd ff cf 4b c0
       -0.237566 -0.247734 -0.0352031 -3.18457
0000b0 10 12 98 3d 63 d4 cd be da 59 14 bd 50 1d 2b be
       0.0742532 -0.402011 -0.0362185 -0.167104
0000c0 da 63 a8 bd fc 10 25 bd 7a 53 51 be 2f f8 8c be
       -0.0822217 -0.0402994 -0.20442 -0.275331
0000d0 84 71 96 3d ae f4 2e bf 84 d8 01 40 a0 37 85 3e
       0.0734587 -0.683421 2.02884 0.26019
0000e0 51 4f 8f be 0f 26 85 3e 03 7a 61 be 37 ff 8f 3e
       -0.279902 0.260056 -0.220192 0.281244
0000f0 f2 7a f0 3d c1 91 40 be ab 94 06 3f 2a d5 8f bc
       0.117422 -0.188056 0.525706 -0.0175577
000100 79 ef c3 bc 90 88 41 3f ad c2 16 be 02 b8 a9 3e
       -0.0239179 0.75599 -0.147227 0.331482
000110 70 72 44 3d 52 9b 24 bf e9 0e 62 be 88 46 9f be
       0.0479607 -0.642995 -0.22076 -0.311085
000120 0d a9 62 bd d1 e7 b3 3e 19 e2 28 3e 9c 6d c4 c0
       -0.055337 0.351378 0.164925 -6.13838
000130 e0 11 25 3e 79 9b c2 bd c3 ba 81 3e aa 99 8d 3e
       0.161201 -0.0950231 0.253378 0.276563
000140 5c 8d 1c 3e 78 7e e1 be 4f 22 32 be 09 1b 6e be
       0.152883 -0.440418 -0.173959 -0.232525
000150 14 98 4e 3e 5c b3 c0 3d 8a 92 7c 3f dc 63 89 be
       0.201752 0.0940921 0.986611 -0.26834
000160 1c 61 11 bf 39 5e 89 be 8f a6 ba bc d4 7e b3 be
       -0.567888 -0.268297 -0.0227845 -0.350577
000170 fe d3 85 3e e0 e4 ad bd 58 75 ce 3e 74 40 b2 bd
       0.261383 -0.0849092 0.403239 -0.087037
000180 ee 5e ce 3d a9 c0 99 be 89 5e a6 be a4 3b 93 3d
       0.100767 -0.300298 -0.32494 0.0718911
000190 64 cc ad 3e b0 c8 4f 3e 20 46 9c bf 2d 78 31 3e
       0.33945 0.202914 -1.22089 0.17331
0001a0 67 28 36 3f 23 f7 f4 be 8e b0 88 be 45 9b a3 be
       0.711554 -0.478448 -0.266972 -0.319544
0001b0 b5 dd 34 be dc 11 22 bf d4 d5 2d 3e 81 ea bf 3d
       -0.176627 -0.633085 0.169761 0.093709
0001c0 6d 91 24 be 94 bd c5 3e eb b7 b5 3d 31 45 59 3e
       -0.160711 0.386212 0.0887297 0.212178
0001d0 ed f1 92 3e 6e df 43 3e 50 8d 67 3e 25 a3 84 bd
       0.287002 0.191282 0.226125 -0.0647643
0001e0 50 6e b3 3e 57 79 12 3f c0 cf b8 3d 5f 46 8d bf
       0.350451 0.572164 0.09024 -1.10371
0001f0 d4 44 ff 3d b3 29 4b 3f 0d 18 14 3e 26 a6 8b 3e
       0.124643 0.793605 0.144623 0.272752
000200 9a cc 58 be 5d fd b0 3e 1e 43 a6 3d 01 3d 43 3d
       -0.211718 0.345683 0.0811827 0.0476656
000210 9c 6b a8 be 22 e2 46 3e fd 9f ab bf d9 ec 80 3e
       -0.328946 0.194222 -1.34082 0.251807
000220 70 cf c3 3e 97 3b eb be db 6a 36 be 02 46 27 be
       0.382442 -0.459439 -0.178142 -0.163353
000230 35 b4 41 3e e5 9c b0 3e f6 9a 7e be 37 fc 2e be
       0.189164 0.344947 -0.248638 -0.170884
000240 41 9b 5c 3e fd dd 6b 3e fa bb 52 bb cf 4e 8e 3e
       0.215436 0.230339 -0.00321555 0.277945
000250 ff 85 74 bd 2f 87 85 be fb 5d 1c bf b7 f1 e7 3d
       -0.0596981 -0.260797 -0.610809 0.113254
000260 d5 3e 9d be df d7 ed bc 52 99 9a be 8f c5 fe 3e
       -0.30712 -0.0290336 -0.301951 0.497601
000270 63 2e 04 bd 23 be 1b 3f f0 52 3a bf 66 dc 74 be
       -0.0322708 0.60837 -0.727828 -0.239122
000280 3a 3b 09 be e4 82 fb 3e bb 45 40 3e 7f 83 5a 3f
       -0.134015 0.491233 0.187766 0.853569
000290 6c cf 1c 3e fd be 1b 3f a0 1b f2 be a5 12 6e be
       0.153135 0.608383 -0.472867 -0.232493
0002a0 19 37 d5 3d 7e 32 cb bd 24 9b 83 be 55 a4 7a c0
       0.104109 -0.0992174 -0.257043 -3.91628
0002b0 01 4f b2 3e 3d 81 0c bf ee 86 83 3d d1 eb 0f 3e
       0.348259 -0.548847 0.0642222 0.140548
0002c0 48 18 26 be 42 26 d1 be 14 ce 9e be f8 34 e7 3d
       -0.162202 -0.408495 -0.310166 0.112894
0002d0 fb 47 15 3b 16 df 30 3e 91 26 4a 3f 77 bd d4 bd
       0.00227785 0.172726 0.789651 -0.103877
0002e0 42 d1 7c 3d 2e fe 9b bc d9 27 40 be 1b a0 04 3e
       0.061723 -0.0190421 -0.187652 0.129517
0002f0 5a 65 16 3e 25 43 09 bd 7e 8b 72 3f bf 9b ce bd
       0.146871 -0.0335113 0.947441 -0.100883
000300 83 e4 36 3b fe b8 15 3f 54 ff 60 3e 95 0b 75 3e
       0.00279072 0.584854 0.219724 0.239302
000310 9d 64 3b 3e 47 72 9d bf 4b c9 2a bf 05 4e c6 bd
       0.183001 -1.23005 -0.667134 -0.0968285
000320 6f ba f5 3e 2f 69 40 3f e6 05 37 bb e3 aa 82 3e
       0.479938 0.751605 -0.00279271 0.25521
000330 77 2b 1b be db 07 2f bd 01 4f 7a be f0 85 a9 be
       -0.151533 -0.0427321 -0.244442 -0.3311
000340 4c 8a cf 3d 3c a4 58 3e 9b 59 6b 3e bc 22 b8 3e
       0.101338 0.211564 0.229834 0.35964
000350 c2 37 28 bd 29 cd 86 be 6f 9f 65 3e d0 61 9e 3e
       -0.0410688 -0.263284 0.224241 0.30934
000360 16 75 cc 3d 16 69 52 be d7 fb 5d be 80 45 96 be
       0.0998327 -0.205479 -0.216781 -0.293499
000370 ec 51 48 3e f7 58 ba bd a2 08 61 3f fb ad a5 3e
       0.195625 -0.09099 0.879038 0.323593
000380 15 66 bb bd 8e 60 5e bd 95 ab 09 3d 1a c1 9e be
       -0.0915033 -0.0542913 0.0336109 -0.310067
000390 09 70 5a 3e 97 c6 7f be 76 d1 b6 bd 5c 01 b5 3e
       0.213318 -0.249781 -0.0892667 0.353526
0003a0 14 08 6b be 89 5f d1 3d 3c 6b 67 3e 24 81 76 3e
       -0.229523 0.102233 0.225995 0.240727
0003b0 91 64 36 be 63 a8 84 3d bd 72 5d 3e ab 94 96 3e
       -0.178118 0.0647743 0.216258 0.294103
0003c0 b9 e3 5d be 0a 0e d4 bc 80 f2 97 be cc 7a 89 be
       -0.216689 -0.0258856 -0.296772 -0.268515
0003d0 7f a3 4d be 20 61 68 be b9 e7 54 3d b3 42 61 3e
       -0.200819 -0.226933 0.0519788 0.219981
0003e0 23 4a a3 be 69 a9 5c be d0 53 ae 3c a5 d9 0c 3e
       -0.318925 -0.21549 0.0212802 0.137549
0003f0 98 a3 77 be 8c e2 cb 3d 21 3c da bd d7 bd a5 be
       -0.241835 0.0995532 -0.10656 -0.323714

B1 f4 [16]
000000 4f 3d 12 3e d3 98 da 3b 98 15 8a 3e 55 f8 d3 3d
       0.142812 0.00667105 0.269696 0.103501
000010 cd 2c f8 3c 9e 56 8b 3d e5 a7 87 3d f6 1c 02 bd
       0.0302948 0.0680363 0.0662382 -0.0317659
000020 f0 b4 a5 3b e7 70 a5 3e fc 37 af bc 31 df bb bd
       0.00505697 0.323127 -0.021389 -0.0917343
000030 78 99 11 3e c1 1a e7 bd b0 46 bc 3d 39 7c 52 3d
       0.142187 -0.112844 0.0919317 0.051388

W2 f4 [16, 16]
000000 3f a7 a8 3e 15 57 95 3d 1e fd c7 3e 65 5a 76 bc
       0.329401 0.07292 0.390603 -0.0150362
000010 04 5a 5a 3e 6e 35 9b be 91 9b c1 3e fb 12 80 bd
       0.213234 -0.303142 0.37814 -0.0625362
000020 0a 10 85 3e 59 ea 0f bd 97 3a d8 be 20 d4 bd be
       0.259888 -0.0351356 -0.422322 -0.370759
000030 24 9b eb be e4 f8 81 be 29 3c 90 3e 2b 6b d3 be
       -0.460168 -0.253852 0.281709 -0.412927
000040 92 ae 3d 40 08 8f 8a 3f 8f c5 6a bf 78 42 5f 3f
       2.96378 1.08249 -0.917077 0.872108
000050 6f d8 9e 3f 4c 54 39 40 83 c0 92 be 1c ee c3 be
       1.24098 2.89577 -0.286625 -0.382676
000060 40 c1 e5 3e 85 79 07 bf e0 49 c3 3e e2 af b9 3f
       0.44874 -0.529198 0.381423 1.45068
000070 40 f9 b3 3e 81 09 9c bd c7 2f dc 3d 8d b3 15 bf
       0.351511 -0.07619 0.107513 -0.584771
000080 2f 51 33 c0 c6 dd 70 3f 03 60 98 c0 87 18 f7 3e
       -2.80183 0.940884 -4.76172 0.482609
000090 97 e5 2b be 3d 7e ce c0 69 02 15 be ae 09 8e bc
       -0.167868 -6.45291 -0.145517 -0.0173386
0000a0 69 57 b9 3f 45 f5 de 3e 46 09 1a be c9 59 bc bf
       1.44798 0.435465 -0.150426 -1.47149
0000b0 4b b1 03 bf 87 8a 8d 3f 15 a8 05 3f ab 5c 08 3e
       -0.514424 1.10579 0.522096 0.133166
0000c0 74 ef a9 3f 40 47 80 3d af 97 6a 3f e7 55 29 3f
       1.32762 0.0626359 0.916377 0.661467
0000d0 3c 4b 14 3f 84 2b f0 3e 7e 70 9e 3e db 36 cc 3e
       0.579273 0.469082 0.309452 0.398856
0000e0 5e 4a 4d 3e 10 e9 47 be 8b 71 b6 3e a0 dd 31 3e
       0.200479 -0.195225 0.356335 0.173697
0000f0 b2 f5 a4 3e ea 04 0e c0 e9 64 11 3f 35 7a 01 bf
       0.322187 -2.21905 0.567946 -0.505771
000100 bb 0a 89 3f 18 60 a7 3f 41 6c 64 bd 47 1f 03 3f
       1.07064 1.30762 -0.0557673 0.512196
000110 11 8d 42 3f 66 bc 1d 3f 29 21 98 3e b8 af 53 be
       0.759965 0.616156 0.297128 -0.206725
000120 24 ef 1c 3f 5c e5 09 be 9d 44 49 bd f5 2d cf 3f
       0.613024 -0.134664 -0.0491377 1.61859
000130 62 e7 dc 3c 40 34 2b bf 09 e2 0c 3e e1 d3 bc be
       0.0269658 -0.668766 0.137581 -0.368804
000140 fd 82 91 bf 50 4e 19 3d 63 62 b3 bf 62 ba 4c 3f
       -1.13681 0.0374282 -1.40144 0.799719
000150 46 22 14 3f 83 14 c4 be 09 8b 6a 3f 4f 37 b5 3d
       0.578648 -0.382969 0.916184 0.0884844
000160 39 d5 12 bf 79 1f 37 3f 88 a1 d5 3d 11 1c d7 be
       -0.573566 0.715324 0.104312 -0.420136
000170 2e e5 60 3f 63 d1 9c 3f 1f f4 c4 3e 7f bd 6a 3f
       0.878497 1.22514 0.384675 0.916954
000180 9c 6f 28 3f 31 25 92 3e 92 91 97 3f 28 d6 05 3f
       0.657953 0.28544 1.18413 0.522799
000190 83 30 9f be 69 fd 3d 3f bf f2 88 3e 07 61 ee bd
       -0.310917 0.742148 0.267477 -0.116396
0001a0 7f f8 c1 3e 71 58 0a be 8c 2d 14 be 80 99 df 3e
       0.378849 -0.135103 -0.144705 0.436718
0001b0 89 41 40 3f 35 63 1b c0 9a ea 05 3f 74 24 37 bf
       0.751 -2.42793 0.523111 -0.7154
0001c0 43 39 2f 40 88 69 2f 3e 72 4e ec 3e 07 5c 73 3f
       2.73787 0.171301 0.461536 0.950623
0001d0 2c 2c 68 3f 1e 50 10 40 f4 70 ea be 57 cf a1 be
       0.906924 2.25489 -0.457893 -0.316035
0001e0 7e 19 1c 3e 40 84 08 be 0f 64 b5 3e c4 08 d9 3f
       0.152441 -0.133317 0.354279 1.69558
0001f0 58 20 1a bf 0d e0 dd 3e df 52 36 3f 93 d3 89 bb
       -0.602056 0.43335 0.712202 -0.00420613
000200 c5 3d a2 3f a8 8b b4 3e cb 4a 87 3f 3e 95 07 3f
       1.26751 0.352628 1.05697 0.529621
000210 e9 7c 80 be b2 46 3d 3f 23 bd 30 bf f9 ef 7e 3a
       -0.250953 0.73936 -0.690386 0.000972509
000220 40 c1 55 3e 9b c8 9c 3e 1f 5a f5 3c 88 67 01 3f
       0.208745 0.306218 0.0299502 0.505486
000230 2d 43 8c 3e ec 86 19 bf 6b 7f 4b 3f 3e cf 9f be
       0.27395 -0.599715 0.794913 -0.312128
000240 d1 07 4b bc 37 1b 33 bf 07 ec 5a 3e 75 76 e2 3e
       -0.012392 -0.699634 0.213791 0.44231
000250 84 fa 91 3d 33 51 1c bf 74 0b 9d 3e 77 91 95 3b
       0.0712786 -0.610614 0.306728 0.00456446
000260 8c f1 c6 bd bf d1 2e 3e 9b 8e 88 be ff cd 5b bf
       -0.0971404 0.170722 -0.266713 -0.858612
000270 02 9d 91 be b5 36 6d 3e cc 0a 55 be 98 a7 f3 be
       -0.284401 0.231654 -0.208049 -0.475888
000280 96 09 a3 bf ac 8f 67 bf c3 d3 1b bf 50 8c 94 3e
       -1.27373 -0.904536 -0.6087 0.290133
000290 cc 40 5d bf a9 ce 14 bd 10 24 e7 3e f5 4a b1 be
       -0.86427 -0.0363299 0.451447 -0.346275
0002a0 45 7f 2c bf 5e f4 81 3f e3 8a cb 3e 2e 8c 14 bf
       -0.673817 1.01527 0.397544 -0.580264
0002b0 f6 45 fa 3e 70 77 ba 3f f5 68 56 3f f1 b7 95 3e
       0.488815 1.45677 0.837539 0.292419
0002c0 1b 12 9f 3e 5f 7e 57 3e 46 5f 71 be 68 42 63 3e
       0.310685 0.210443 -0.235715 0.221933
0002d0 78 d3 d5 be 87 53 be be e8 32 45 3e 09 1a b3 3d
       -0.417629 -0.371731 0.192577 0.087452
0002e0 7c f1 85 3c 48 f3 6c bc 49 49 8f 3c b3 ed ec be
       0.0163505 -0.0144623 0.017491 -0.462751
0002f0 64 3d 05 be 94 fa 02 bf ac a8 f1 be 5b e9 b5 bc
       -0.130117 -0.511636 -0.47199 -0.022206
000300 2f fa be 3f b7 44 4a 3f df 4e ca 3e 2a e3 43 3f
       1.49201 0.790111 0.395133 0.765185
000310 a3 21 6b 3f 7c 9e 6b 3f e7 73 3e be 3b 6e a8 3e
       0.918482 0.920387 -0.185989 0.328966
000320 13 f4 b7 3e d5 95 97 be 71 01 78 be 48 a8 39 3e
       0.359284 -0.296065 -0.242193 0.181306
000330 4b 8f d6 3e cf f7 eb bf 98 df 31 3f 25 78 b3 be
       0.419062 -1.8435 0.694818 -0.350526
000340 ff 5a 26 3f 13 0f 2e c0 b1 bf 3c 40 83 13 19 bf
       0.649826 -2.71967 2.9492 -0.597954
000350 d6 fd 8b 3e d9 96 59 bf b1 a2 b6 be ca 52 db 3e
       0.273421 -0.849958 -0.35671 0.428366
000360 f2 79 75 be bd c7 39 3e a3 73 be be 65 36 80 bf
       -0.239723 0.181426 -0.371976 -1.00166
000370 d3 4a 0d 3f d5 26 ca bf a3 93 e5 3e 7a a9 98 3c
       0.551923 -1.57931 0.448392 0.0186355
000380 66 9f 9f 3e 47 04 b3 be eb fc cb be 83 35 be bd
       0.311763 -0.349642 -0.398414 -0.0928755
000390 e7 23 df bc cb 68 b4 3e 2d 3f a8 be f4 e1 a9 3e
       -0.0272388 0.352362 -0.328607 0.331802
0003a0 a5 82 ba be 12 23 85 bd 87 a5 a9 3e 8f c2 9d be
       -0.364278 -0.0650083 0.331341 -0.308125
0003b0 84 df ac 3d 63 d3 6a be 74 eb 35 be f3 74 8e be
       0.0844107 -0.229322 -0.177656 -0.278236
0003c0 57 3e ff 3f 43 ad 09 40 2d 65 74 bd 70 08 95 3f
       1.99409 2.1512 -0.0596668 1.16432
0003d0 c0 cd 02 be 54 a7 23 bd d9 7c 4c 3e 49 bd d7 be
       -0.127738 -0.0399545 0.199695 -0.421366
0003e0 c6 4d 25 3f 74 7d 5f be 83 fa 86 3e 07 08 da 3f
       0.645718 -0.218252 0.26363 1.70337
0003f0 52 46 8c bd 28 63 dc 3d 58 58 50 be 58 a8 85 bf
       -0.0684935 0.107611 -0.203462 -1.0442

B2 f4 [16]
000000 71 0a 61 bd 30 47 1f be 45 4b bb 3b 6f 2b 6d be
       -0.0549416 -0.155545 0.00571576 -0.231611
000010 cb 84 5f 3c fe f0 17 3f 01 be 00 bb ea f8 1e bd
       0.0136425 0.593521 -0.00196445 -0.0388116
000020 ab b4 00 bd 4e 3d a7 bd f0 30 11 3f ce f2 86 bd
       -0.0314223 -0.0816599 0.567153 -0.0658928
000030 ef b7 6c 3d 04 5a b2 3e 00 00 00 80 3c f9 04 be
       0.0577926 0.348343 -0.0 -0.129857

W3 f4 [1, 16]
000000 48 6e ea bb c6 42 0e 3a db 21 f2 3b 51 eb 89 3b
       -0.00715426 0.000542682 0.00738929 0.00420896
000010 2f 6b 20 bc 99 6e 48 bc 1a 64 37 3c 00 aa 17 3c
       -0.00979118 -0.0122334 0.0111933 0.00925684
000020 44 ae 8a 3c 5a b1 26 3b 4d e8 22 3b dc 68 df 3a
       0.0169288 0.00254353 0.00248577 0.00170448
000030 1a 9a 5b 3b 6e b4 ad 3c de 33 58 bb 1c b7 d6 bb
       0.00335086 0.0212042 -0.00329899 -0.00655259
