Networks/AutoTaxi/AutoTaxi_128Relus_200Epochs_OneOutput.onnx (onnx, 46101 bytes, 7 tensors)

W0 f4 [64, 128]
000000 c8 99 b6 3e cf 14 3a 3f 23 d9 57 3f 0a f3 32 3f
       0.356642 0.72688 0.843157 0.699021
000010 45 b7 ce 3e 65 73 f0 bc 37 50 f8 be 83 a3 10 bf
       0.403742 -0.0293519 -0.484987 -0.564995
000020 00 00 00 00 00 00 00 00 00 00 00 00 00 00 00 00
       0.0 0.0 0.0 0.0
000030 00 00 00 00 00 00 00 00 00 00 00 00 00 00 00 00
       0.0 0.0 0.0 0.0
000040 b5 de b7 3e c5 ae b5 3e a1 b7 dd bc 9b 56 a2 be
       0.359121 0.354849 -0.0270651 -0.317067
000050 33 e0 1c bf 4b cc 77 bf 0f f2 56 bf 8c 2d 44 bf
       -0.612796 -0.967961 -0.839631 -0.76632
000060 00 00 00 00 00 00 00 00 00 00 00 00 00 00 00 00
       0.0 0.0 0.0 0.0
000070 00 00 00 00 00 00 00 00 00 00 00 00 00 00 00 00
       0.0 0.0 0.0 0.0
000080 a8 aa c8 3e a4 37 6c 3e 6d e1 91 3e fe eb a1 3d
       0.391927 0.230681 0.284923 0.0790634
000090 f7 c9 d1 3d ed 39 9f 3d c1 8e df be c1 55 16 bf
       0.102436 0.0777472 -0.436636 -0.587246
0000a0 00 00 00 00 00 00 00 00 00 00 00 00 00 00 00 00
       0.0 0.0 0.0 0.0
0000b0 00 00 00 00 00 00 00 00 00 00 00 00 00 00 00 00
       0.0 0.0 0.0 0.0
0000c0 95 61 6c 3e db 18 58 3a 25 ea 55 3e 97 ae 60 3e
       0.230841 0.000824345 0.208901 0.219416
0000d0 ad 87 38 ba f9 9d ab bd 2e 8c 34 bd ae 29 20 3e
       -0.000703926 -0.0837974 -0.044079 0.156409
0000e0 00 00 00 00 00 00 00 00 00 00 00 00 00 00 00 00
       0.0 0.0 0.0 0.0
0000f0 00 00 00 00 00 00 00 00 00 00 00 00 00 00 00 00
       0.0 0.0 0.0 0.0
000100 ed ef 5c 3e f2 2a a9 bb c3 be b6 bb 33 fa b1 3d
       0.215759 -0.00516259 -0.00557694 0.086903
000110 89 80 9e 3c cd ca f6 3d e8 df c9 3c 79 a1 0f bd
       0.0193484 0.120504 0.0246429 -0.0350661
000120 00 00 00 00 00 00 00 00 00 00 00 00 00 00 00 00
       0.0 0.0 0.0 0.0
000130 00 00 00 00 00 00 00 00 00 00 00 00 00 00 00 00
       0.0 0.0 0.0 0.0
000140 1d 19 50 3d 8e 20 15 3d 76 40 98 3d ed aa f6 3c
       0.0508052 0.036408 0.0743417 0.0301108
000150 46 7f 63 bd e2 56 e6 bc d5 1a 84 bd e3 57 47 3d
       -0.0555413 -0.0281176 -0.0645043 0.0486678
000160 00 00 00 00 00 00 00 00 00 00 00 00 00 00 00 00
       0.0 0.0 0.0 0.0
000170 00 00 00 00 00 00 00 00 00 00 00 00 00 00 00 00
       0.0 0.0 0.0 0.0
000180 73 44 83 bd f1 26 e4 3c b0 1f ff ba 09 d3 41 3c
       -0.0640954 0.0278506 -0.00194644 0.0118301
000190 c4 1a 58 bd de 31 86 bc 9d 07 81 bd 4f dc 9e ba
       -0.0527599 -0.0163812 -0.0630028 -0.00121201
0001a0 00 00 00 00 00 00 00 00 00 00 00 00 00 00 00 00
       0.0 0.0 0.0 0.0
0001b0 00 00 00 00 00 00 00 00 00 00 00 00 00 00 00 00
       0.0 0.0 0.0 0.0
0001c0 06 cc ad bd 5f 7e e7 bd 77 8b 5b bd 38 35 eb bc
       -0.0848618 -0.113034 -0.0535998 -0.0287119
0001d0 6b 4a 8d bc e0 80 3b bc ce c0 ad 3c e5 c4 89 bb
       -0.0172474 -0.0114443 0.0212101 -0.00420438
0001e0 00 00 00 00 00 00 00 00 00 00 00 00 00 00 00 00
       0.0 0.0 0.0 0.0
0001f0 00 00 00 00 00 00 00 00 00 00 00 00 00 00 00 00
       0.0 0.0 0.0 0.0
000200 36 95 19 bf cc 7d 06 bf df 78 6d bd 65 c7 c6 3e
       -0.599933 -0.525357 -0.0579766 0.38824
000210 e0 65 d6 3e 27 12 3c 3f b8 74 78 3f 41 d4 01 3f
       0.418746 0.734652 0.970531 0.507145
000220 00 00 00 00 00 00 00 00 00 00 00 00 00 00 00 00
       0.0 0.0 0.0 0.0
000230 00 00 00 00 00 00 00 00 00 00 00 00 00 00 00 00
       0.0 0.0 0.0 0.0
000240 ed 66 16 3e 26 ac 4d be 86 e2 7e be df 1b db be
       0.146877 -0.200852 -0.248911 -0.427947
000250 4f b1 c2 be 68 3e 0f bf 6a 4f 21 bf 38 87 cb be
       -0.380259 -0.559546 -0.630118 -0.397516
000260 00 00 00 00 00 00 00 00 00 00 00 00 00 00 00 00
       0.0 0.0 0.0 0.0
000270 00 00 00 00 00 00 00 00 00 00 00 00 00 00 00 00
       0.0 0.0 0.0 0.0
000280 fd 49 dc bd ca e1 83 be b6 67 26 be d3 cc 69 3d
       -0.107563 -0.257582 -0.162505 0.0570801
000290 e6 51 3b bc bb 10 96 3d 4a 26 87 3e 24 9d 89 be
       -0.0114331 0.0732741 0.263964 -0.268777
0002a0 00 00 00 00 00 00 00 00 00 00 00 00 00 00 00 00
       0.0 0.0 0.0 0.0
0002b0 00 00 00 00 00 00 00 00 00 00 00 00 00 00 00 00
       0.0 0.0 0.0 0.0
0002c0 fb ca 83 be b1 57 b3 3c 24 42 03 3e 60 cd a1 3d
       -0.257408 0.0218924 0.128182 0.079005
0002d0 90 a4 ff 3c c5 ac f7 3d da 54 fd 3d 2f 50 8a 3e
       0.0312064 0.120935 0.123697 0.270143
0002e0 00 00 00 00 00 00 00 00 00 00 00 00 00 00 00 00
       0.0 0.0 0.0 0.0
0002f0 00 00 00 00 00 00 00 00 00 00 00 00 00 00 00 00
       0.0 0.0 0.0 0.0
000300 62 a1 36 3e be a4 31 3e 21 cb aa 3e b9 64 66 bd
       0.17835 0.17348 0.333581 -0.0562484
000310 c1 ef 15 bd e7 8a 12 3e 10 05 93 3e cf bd 67 3e
       -0.0366056 0.143108 0.287148 0.22631
000320 00 00 00 00 00 00 00 00 00 00 00 00 00 00 00 00
       0.0 0.0 0.0 0.0
000330 00 00 00 00 00 00 00 00 00 00 00 00 00 00 00 00
       0.0 0.0 0.0 0.0
000340 d4 b9 42 3e 34 1e 1b bd 28 7c 36 3e 32 8b f5 3c
       0.190162 -0.0378706 0.178208 0.0299736
000350 39 36 8c 3d 64 fa 0f 3d 08 20 f5 3c df c8 c7 3d
       0.0684628 0.0351509 0.0299225 0.0975511
000360 00 00 00 00 00 00 00 00 00 00 00 00 00 00 00 00
       0.0 0.0 0.0 0.0
000370 00 00 00 00 00 00 00 00 00 00 00 00 00 00 00 00
       0.0 0.0 0.0 0.0
000380 fd 86 29 3e 4f fc 7d 3d 1c d8 a5 3d 78 91 9e 3d
       0.165554 0.0620082 0.0809786 0.0774259
000390 e1 37 2f 3d 73 0a 87 3d aa 43 ce 3d 83 dd 10 3e
       0.0427779 0.0659379 0.100715 0.14147
0003a0 00 00 00 00 00 00 00 00 00 00 00 00 00 00 00 00
       0.0 0.0 0.0 0.0
0003b0 00 00 00 00 00 00 00 00 00 00 00 00 00 00 00 00
       0.0 0.0 0.0 0.0
0003c0 c5 e7 5e 3e 6c 07 33 3e c8 ee 02 3e ad bd cf 3d
       0.217681 0.174833 0.127864 0.101436
0003d0 7a 2e ad 3d 12 de de 3c 51 85 2f 3e 91 ed 3c 3e
       0.0845613 0.0272055 0.171407 0.1845
0003e0 00 00 00 00 00 00 00 00 00 00 00 00 00 00 00 00
       0.0 0.0 0.0 0.0
0003f0 00 00 00 00 00 00 00 00 00 00 00 00 00 00 00 00
       0.0 0.0 0.0 0.0

B0 f4 [64]
000000 bf 2a ef 3e 29 95 c8 be 47 0f 0f bc 00 00 00 80
       0.467123 -0.391763 -0.00873167 -0.0
000010 00 00 00 80 43 ff 04 3e 81 83 4d bb 00 00 00 80
       -0.0 0.12988 -0.00313589 -0.0
000020 e6 42 c4 bb 00 00 00 80 bf 0b 3e bb 48 51 37 bf
       -0.00598942 -0.0 -0.00289987 -0.716084
000030 03 12 05 bc 03 41 e0 3d 00 00 00 80 00 00 00 80
       -0.00812197 0.109499 -0.0 -0.0
000040 02 2b 07 be 64 ce a3 be 00 00 00 80 04 5f 87 bb
       -0.132 -0.319934 -0.0 -0.0041312
000050 00 00 00 80 11 8b d8 bd c8 61 00 be 00 00 00 80
       -0.0 -0.105734 -0.125373 -0.0
000060 8c d8 27 bc 00 00 00 80 cf 5d 9a bb 09 df b9 bb
       -0.0102445 -0.0 -0.00471089 -0.00567234
000070 00 00 00 80 00 00 00 80 74 a1 8d bc bd 6f 94 be
       -0.0 -0.0 -0.0172889 -0.289915
000080 bf 2a ef 3e 29 95 c8 be 47 0f 0f bc 00 00 00 80
       0.467123 -0.391763 -0.00873167 -0.0
000090 00 00 00 80 43 ff 04 3e 81 83 4d bb 00 00 00 80
       -0.0 0.12988 -0.00313589 -0.0
0000a0 e6 42 c4 bb 00 00 00 80 bf 0b 3e bb 48 51 37 bf
       -0.00598942 -0.0 -0.00289987 -0.716084
0000b0 03 12 05 bc 03 41 e0 3d 00 00 00 80 00 00 00 80
       -0.00812197 0.109499 -0.0 -0.0
0000c0 02 2b 07 be 64 ce a3 be 00 00 00 80 04 5f 87 bb
       -0.132 -0.319934 -0.0 -0.0041312
0000d0 00 00 00 80 11 8b d8 bd c8 61 00 be 00 00 00 80
       -0.0 -0.105734 -0.125373 -0.0
0000e0 8c d8 27 bc 00 00 00 80 cf 5d 9a bb 09 df b9 bb
       -0.0102445 -0.0 -0.00471089 -0.00567234
0000f0 00 00 00 80 00 00 00 80 74 a1 8d bc bd 6f 94 be
       -0.0 -0.0 -0.0172889 -0.289915

W1 f4 [32, 64]
000000 10 24 1f bf 15 ac 89 3e ff b8 78 3d f4 34 70 3e
       -0.621644 0.268891 0.0607233 0.234577
000010 4e 10 50 3c 9a 44 85 3e 27 4a 52 be 8d 0d 7d be
       0.0126992 0.260289 -0.205361 -0.247122
000020 08 04 1a be 03 5b 65 3e b6 ec 3a 3d 8f 36 d6 3e
       -0.150406 0.22398 0.0456359 0.418385
000030 2f 9a bf bd de c6 e6 bd 8d 9b fa 3d 35 d4 08 3e
       -0.0935558 -0.112684 0.122367 0.133622
000040 04 ab 4a 3e 98 15 36 3f f8 7a 4e bb b8 e7 d9 bd
       0.197918 0.711267 -0.00315064 -0.106399
000050 48 dd ce bd f9 8c 7a bc fc 8e 11 3e a2 b6 8d bc
       -0.101008 -0.0152924 0.142147 -0.017299
000060 da aa 24 be 74 63 55 bd 32 73 01 be 4c 35 d3 bd
       -0.160808 -0.0520968 -0.126416 -0.103129
000070 c2 de 94 3d 23 15 21 3d 2d 3e 45 3e 7f fb ba 3e
       0.0726905 0.0393268 0.19262 0.3652
000080 c2 a1 87 3e d1 e6 a8 be 7a 9a 5d 3c a9 2f eb bd
       0.264906 -0.329886 0.0135256 -0.114837
000090 67 d3 21 3e c2 a6 e6 be 80 a5 ae 3d 19 cb 54 3e
       0.158033 -0.450491 0.0852766 0.207806
0000a0 bb d5 03 be a9 69 37 3e 6c 43 15 be c8 03 96 bd
       -0.128745 0.179114 -0.145765 -0.0732494
0000b0 e3 99 01 bd 05 6c 8f be 38 d7 f0 3d f3 d3 f2 3a
       -0.0316409 -0.280121 0.117598 0.00185263
0000c0 51 bf cb 3d ec f7 ec be a5 32 35 be 8e c9 42 3e
       0.099486 -0.462829 -0.176951 0.190222
0000d0 73 f3 7d 3e a4 45 97 bd 5e a1 47 bf 67 d2 36 be
       0.247999 -0.0738633 -0.779806 -0.178537
0000e0 5a 84 e2 3d 72 fd 0b 3e 8b de 79 3e 5b 80 31 bd
       0.110604 0.136709 0.244013 -0.0433353
0000f0 9a b3 3e bd ac 55 5b 3e 1a 86 6f be 95 99 42 3e
       -0.046558 0.214194 -0.23391 0.190039
000100 80 48 6f 3e b2 d8 f6 3e e2 13 51 ba c0 cc 07 be
       0.233675 0.482122 -0.000797568 -0.132617
000110 f7 d7 81 3d 5b ab b2 3d 32 9f ad 3d 5b 0c fe bd
       0.0634002 0.0872409 0.0847763 -0.124047
000120 17 2c 75 3e 37 c0 71 3d bb 0f 70 3e 99 0e 15 3f
       0.239426 0.0590212 0.234435 0.582254
000130 fe b7 f2 3d ad a4 15 bf 88 46 17 be e3 c6 7d 3e
       0.118515 -0.584544 -0.14773 0.247829
000140 1e e1 44 3e a1 12 47 3e e5 61 01 be 11 53 02 3e
       0.192265 0.194407 -0.12635 0.12727
000150 37 6f 0c be 1d 38 37 3e 95 9a 9d 3d 22 df 45 3e
       -0.137143 0.178925 0.076955 0.193234
000160 e6 21 43 3e ec f0 7c bc 57 94 12 be e2 3f 0d 3e
       0.190559 -0.0154383 -0.143144 0.137939
000170 8b 8c 7e be a7 24 4b 3e ff 1f 47 3e 24 28 1e 3f
       -0.248583 0.198382 0.194458 0.6178
000180 78 7a 6d bf 95 24 14 3d c3 9f 11 3e 5d 32 3e 3e
       -0.92765 0.0361677 0.142211 0.185739
000190 08 95 93 bd f3 ff 3a be 03 cc 2c be d4 f2 33 be
       -0.0720616 -0.182617 -0.168747 -0.175731
0001a0 ba 4e 33 3e 7c 64 c3 bd 18 cf 70 be da cb 0e bf
       0.175105 -0.0954065 -0.235165 -0.557798
0001b0 d0 19 c7 bd 4e 5e ac 3e 74 99 3a bd 59 fc e6 bd
       -0.0972172 0.336657 -0.0455565 -0.112786
0001c0 2e 73 ea be c6 22 3c bd 31 b7 56 3c 9d 4b 41 3e
       -0.45791 -0.0459316 0.0131052 0.188765
0001d0 f2 8e c8 bd 58 ef a6 3d 90 b4 45 3d d7 4b 73 3e
       -0.0979289 0.0815112 0.0482679 0.237594
0001e0 0f 1c 61 3d da c9 e0 bd 4a d2 25 be 06 05 0f 3d
       0.0549584 -0.10976 -0.161935 0.0349169
0001f0 7b e9 d8 3b 02 49 58 3e c9 10 91 bc 47 e3 08 bf
       0.00661963 0.211216 -0.0177082 -0.534718
000200 79 ce 66 be 40 df b1 bc c2 fd cb 3d 0b fe c8 bc
       -0.225397 -0.0217129 0.0996051 -0.0245352
000210 96 77 05 3e 91 ae 5e 3d 2a 8e 53 be 59 6e 39 3e
       0.130339 0.0543657 -0.206597 0.181085
000220 95 48 c2 3d 33 4f 6e be c6 a8 2b 3d ee 8f 7c bd
       0.094865 -0.232724 0.041909 -0.0616607
000230 85 e9 4b 3e 77 e0 f7 3c c6 f7 55 3e 26 51 cf bd
       0.199133 0.0302584 0.208953 -0.101229
000240 a9 5d 8d bd 45 22 1b 3c 54 a9 39 3e 65 08 86 bd
       -0.0690263 0.00946862 0.18131 -0.0654457
000250 ba 5b 93 bd 47 72 29 be ca 13 0d bd ec de 1a be
       -0.0719523 -0.165475 -0.0344427 -0.151241
000260 29 a5 b1 3c 0a f3 6e 3e 79 cc 60 be 36 69 a4 3c
       0.0216852 0.233349 -0.21953 0.0200697
000270 fb c7 04 bb 3c be 0d 3e 52 cb fb 3c a6 46 08 3e
       -0.00202608 0.138421 0.0307366 0.133082
000280 af 92 c4 bd d5 06 e7 3d c1 19 6c be 8b 89 ed bd
       -0.0959829 0.112806 -0.230567 -0.115985
000290 ee 4c 74 3b 3a ce ed 3d aa e8 34 bc 9f e4 2e 3e
       0.00372773 0.116116 -0.0110418 0.170794
0002a0 d3 67 17 be dc 29 5d 3e 33 fa 31 be 61 de 73 be
       -0.147857 0.21598 -0.173806 -0.238153
0002b0 37 03 17 3d af aa a3 3d e0 63 f0 bd 99 12 a4 3c
       0.0368683 0.0799154 -0.117378 0.0200284
0002c0 b4 ab 30 be 19 48 e5 3a ed 63 65 be 78 97 eb 3d
       -0.17253 0.00174928 -0.224014 0.115035
0002d0 e0 64 3b bd 58 59 cb bd 64 76 26 be 24 91 67 bd
       -0.0457505 -0.0992915 -0.162561 -0.0565349
0002e0 ce 8a 28 be 59 13 4b be 49 d8 07 3e c3 6d 93 3d
       -0.164592 -0.198316 0.132661 0.0719867
0002f0 45 bf 11 bc 93 51 45 be 24 f1 42 be 9c 15 31 3e
       -0.0088957 -0.192694 -0.190373 0.172934
000300 74 42 24 bf c7 f4 84 3f b3 61 4d 3e 76 b2 ca bd
       -0.641639 1.03872 0.200568 -0.0989732
000310 01 ef ee bc 09 37 b1 3e dd 2c 79 3d 3d 5e 0d 3d
       -0.0291667 0.346123 0.0608338 0.0345137
000320 61 0b a0 3d b8 03 45 be 7d 97 d2 bd 6a 5a 98 bc
       0.0781467 -0.192397 -0.102828 -0.0185978
000330 f4 e7 a1 3d 61 e0 11 3f 68 28 99 3d ab b2 1f be
       0.0790557 0.56983 0.0747841 -0.155955
000340 5e 2c d4 be c4 7a 13 bf 35 f0 a3 3d c1 52 1d 3e
       -0.414401 -0.576092 0.080048 0.153636
000350 f3 55 02 be 48 8a a0 3f 8f e4 a2 3f 1a 30 48 be
       -0.127281 1.25422 1.2726 -0.195496
000360 89 7e 5d be 0d 6f 46 be 36 95 65 be f8 6e 63 3e
       -0.216303 -0.193783 -0.224202 0.222103
000370 20 40 3e 39 b4 3e 45 bd e3 19 d4 bd 7c 23 9f bc
       0.000181437 -0.0481555 -0.103565 -0.0194261
000380 8c a2 d7 3e 1e c4 4e be 61 a4 f7 bd 71 c6 60 3e
       0.421162 -0.20192 -0.120919 0.219507
000390 04 73 f4 3d 6d 90 51 3f 26 e2 7d 3e b9 ff 18 be
       0.11936 0.81861 0.247933 -0.149413
0003a0 82 38 0f 3e da 8f 14 be f7 ae 41 be 3e 25 2f 3f
       0.139864 -0.14508 -0.189144 0.684162
0003b0 3d 40 9c 3b 3e a4 89 3d e5 c6 fe 3c a2 08 ae 3d
       0.0047684 0.0672078 0.0311007 0.0849774
0003c0 23 f8 7f 3e f5 85 30 3e 25 92 78 3e 44 6b 65 be
       0.24997 0.172386 0.242745 -0.224042
0003d0 d2 6e 64 be 6c 77 2f be ec dd 27 bf fc 38 5a be
       -0.223079 -0.171354 -0.65573 -0.213108
0003e0 99 4b 85 3c 18 92 38 bc 32 1c 1f be 69 71 06 3e
       0.0162714 -0.0112653 -0.155381 0.131292
0003f0 b9 ce f5 bc df 6d 2e 3e be cb 1a 3c 9f 8f d2 3e
       -0.0300058 0.170341 0.00944799 0.411252

B1 f4 [32]
000000 f2 d1 02 3e eb c3 7a 3c 00 00 00 80 7d 5a ad 3e
       0.127754 0.0153055 -0.0 0.338581
000010 e2 06 3c 3e 68 5b 4d 3e 62 5f d7 3b 75 b8 8c 3c
       0.18362 0.200544 0.00657265 0.0171778
000020 10 47 72 3d b9 e3 1d 3e 5b 58 7c bd 19 84 43 3d
       0.0591498 0.154189 -0.0616077 0.0477334
000030 5b eb 2b 3d 3b 1a 27 3d 1d dd ad bc ff 75 96 3e
       0.0419725 0.0407965 -0.0212236 0.293869
000040 00 00 00 80 00 00 00 80 c3 68 b1 bd a5 78 46 bd
       -0.0 -0.0 -0.0866256 -0.0484549
000050 96 21 1e 3e cd 87 f1 bc de 35 ec bb 7a 1b 3b 3e
       0.154425 -0.0294837 -0.00720857 0.182722
000060 c5 1a 93 bc 29 3e de bd c3 38 ae 3d 1c 7e 72 bd
       -0.0179571 -0.108517 0.0850692 -0.0592023
000070 00 00 00 80 4b 74 26 3e 0f e3 af bd 9c dc 7f 3e
       -0.0 0.162553 -0.0858823 0.249865

W2 f4 [32, 32]
000000 fb 04 a8 3e 3f c6 00 c0 c5 df 3b bd 57 3f a6 3e
       0.328163 -2.0121 -0.0458677 0.324702
000010 60 76 83 3f ae f0 96 3e d1 1e 6b bf 17 d9 6e bf
       1.02705 0.294805 -0.918439 -0.933
000020 35 0a 19 be b8 06 20 c0 f1 bd 5f bd da e6 86 3e
       -0.149453 -2.50041 -0.0546245 0.26348
000030 9a 0d ad bd c6 36 e9 be e1 f0 8d bd f6 5e e4 3e
       -0.0844986 -0.455496 -0.0693071 0.446037
000040 d5 ca e4 bd 0d e3 9e 3d 19 91 18 3e 34 a0 16 bf
       -0.111715 0.0775815 0.148991 -0.588382
000050 50 69 69 bc b5 a7 54 3e 97 71 13 3e c9 57 62 3e
       -0.0142463 0.207671 0.143988 0.221038
000060 9b a9 f5 3c 8c 81 d5 3d e8 88 3c be d1 3e 1e 3f
       0.0299881 0.104251 -0.184116 0.618146
000070 35 ed 22 be 28 62 05 3f 4c c1 3a be 6d 8d d0 be
       -0.159108 0.521029 -0.182378 -0.407329
000080 c4 96 4a 3f 3e 94 68 3c 98 86 89 be 5e 2d f7 3d
       0.791363 0.0141955 -0.268605 0.120692
000090 61 ff 19 3f 73 4c 26 3e d4 d3 77 be 2b fb 1e be
       0.601553 0.162401 -0.242019 -0.155255
0000a0 eb 38 86 3e 86 21 d2 bd 69 c6 12 be c6 a4 8f 3d
       0.262153 -0.102603 -0.143335 0.0701385
0000b0 c6 35 42 bf 68 79 ea 3f 72 18 10 3f 27 dc 7b be
       -0.758633 1.83183 0.562873 -0.245957
0000c0 07 b3 91 be a1 2c 9c 3e 28 7a 65 3d 59 8b eb bf
       -0.284569 0.305028 0.0560247 -1.84019
0000d0 27 4c 78 3d c7 2b 10 3e 6f 2e 3e 3e 36 b0 39 bf
       0.0606195 0.140792 0.185724 -0.725345
0000e0 20 99 ce 3d f5 f4 d1 bd 33 e1 57 3e 0f ee 5a 3f
       0.100878 -0.102518 0.21082 0.855195
0000f0 58 0a b7 3d 0f 44 76 be 1b bd 0e bf f7 0c a7 3d
       0.0893752 -0.240494 -0.557573 0.0815677
000100 2d ce d8 3d be 2f 2e bf b2 2d 03 3e 43 aa a0 3e
       0.105862 -0.680416 0.128104 0.313799
000110 79 02 79 bf 1e c5 75 bf 8b fe 40 3f bf 32 4a bd
       -0.972694 -0.960039 0.753884 -0.0493648
000120 1c 5f ab 3f 1a a6 36 3f e4 4e 59 3e 52 d6 f7 be
       1.33884 0.713472 0.212215 -0.484057
000130 1d 56 60 3f 84 f5 15 c0 98 4d e0 3d a5 f7 bd 3d
       0.876314 -2.34311 0.109523 0.0927575
000140 f7 cd dd bd 6d 52 b6 3c 11 e5 5f 3f 82 56 f4 3f
       -0.108303 0.0222561 0.874589 1.90889
000150 f4 f9 0c bf 95 bb 1f be 47 b0 41 be 9a 93 27 3f
       -0.550689 -0.155989 -0.189149 0.654596
000160 77 4b f2 3c f1 11 11 be 66 84 df 3e 83 a2 29 be
       0.029577 -0.14167 0.436557 -0.165659
000170 95 0c 40 bd 8b c5 f7 be e7 8f 0d bf fa b5 05 3e
       -0.046887 -0.483929 -0.552977 0.130577
000180 00 52 9b 3e 63 7c 28 3e 7e 33 36 bd 48 de 09 be
       0.30336 0.164537 -0.0444827 -0.134637
000190 26 1e d0 bd af b2 d6 be c1 e2 0c bf 00 48 77 bd
       -0.10162 -0.419332 -0.550335 -0.0603714
0001a0 ca c1 ac 3e dc 2f 5b 3f 74 07 01 3e a8 71 7f 3f
       0.337416 0.856199 0.126005 0.997828
0001b0 b1 e1 55 bf 5b b6 c2 3f 71 c9 ad bf 52 b8 8e 3e
       -0.835475 1.52119 -1.35771 0.27875
0001c0 73 83 21 be 69 8c 46 be 79 a1 0a bd 6f 81 b4 bf
       -0.157728 -0.193895 -0.0338454 -1.4102
0001d0 89 ea c5 3f 6c 77 6f be 4d 4e 7d 3e 7f c1 5e bf
       1.54622 -0.233854 0.247369 -0.87014
0001e0 c8 61 30 3d fc e4 10 bf 16 a1 d8 3d 07 b6 7a 3f
       0.043062 -0.565994 0.105776 0.97934
0001f0 35 7d 8e 3e 31 7e 4a be 32 20 eb bf 54 71 0f 3f
       0.278299 -0.197747 -1.83692 0.560323
000200 12 33 47 3f bb b6 bf be 23 49 80 be 8e 03 af 3e
       0.778123 -0.374441 -0.250558 0.341824
000210 1d 8f 1d bb 36 ae 27 3f da ff 30 bf 5f 43 80 be
       -0.00240416 0.655002 -0.691404 -0.250514
000220 f9 68 51 bf 6d 1c b1 3f 93 19 6f be 5e 63 97 be
       -0.818008 1.38368 -0.233496 -0.29568
000230 1f 80 b4 bf 4f af 94 3f aa 0a bd 3e b6 f6 ce 3e
       -1.41016 1.1616 0.369222 0.404226
000240 b0 58 e3 3d 72 6f fe 3d fb ae 08 3e 8f 35 17 bf
       0.111009 0.124236 0.13348 -0.590661
000250 e3 6c 0a be 91 cd 8a 3d 92 5e c4 bd 5f 09 9c be
       -0.135181 0.0677749 -0.0958835 -0.304759
000260 37 f0 b4 bd 0b b5 b6 be e4 f6 2b 3e df 1a ac bf
       -0.0883488 -0.35685 0.167934 -1.34457
000270 e6 b8 a9 3d b0 8e 03 be 4a 5e b1 bf 53 20 23 3f
       0.0828722 -0.128474 -1.38569 0.637212
000280 5b 0b f3 bd 50 55 11 be ff 95 85 be 9b fe 6c be
       -0.118674 -0.141927 -0.26091 -0.23144
000290 81 3d 96 be 7a 17 cf bd bd bd c0 bd 5d 16 53 3e
       -0.293438 -0.101119 -0.0941119 0.20614
0002a0 49 ec c4 bd 7a c2 12 3e c3 b2 5e 3d 05 a3 14 bc
       -0.0961538 0.14332 0.0543697 -0.00907207
0002b0 ef 37 3a 3e bd 01 a6 be 4d 2c d0 3d b7 88 9e bc
       0.181854 -0.324232 0.101647 -0.0193523
0002c0 d8 bc ea bd dc da 32 3e f9 4e 8c be 90 10 15 be
       -0.114618 0.174663 -0.27404 -0.145571
0002d0 19 e2 80 be fd 68 98 be ed 2a 04 3e 34 68 58 be
       -0.251725 -0.297676 0.12907 -0.211335
0002e0 67 ce 1f 3d 25 e9 5a be 82 71 a8 be fa 4f 6d ba
       0.0390152 -0.21378 -0.328991 -0.000905275
0002f0 c1 e6 3c be ff 3f ce 3d a3 95 83 3e de d2 a0 3d
       -0.184474 0.100708 0.257001 0.0785272
000300 9d bc 0c bf 76 6c 0c 3f d4 6d bf 3d e9 7d d3 be
       -0.549753 0.54853 0.0934712 -0.41307
000310 7b da 01 be ea 25 ce 3e ab 5a 02 3e 27 c1 db 3d
       -0.12681 0.402633 0.127299 0.107302
000320 b3 ad 9b 3d f7 20 e4 bd c1 53 90 3e bd 54 0c 3e
       0.0760149 -0.111391 0.281889 0.137042
000330 dc bb 86 3e a6 63 6e 3e 23 a2 e8 be f9 bd 2d be
       0.263152 0.232802 -0.454362 -0.16967
000340 b0 72 80 be b8 76 12 3e 2d 0a 7b 3d e3 4f 1c bf
       -0.250875 0.143031 0.061289 -0.610594
000350 c3 64 8a be c1 c5 3a be e1 bb 28 bd 37 8c 32 3e
       -0.2703 -0.182395 -0.0411948 0.174363
000360 e6 20 18 3e 6a a4 cd be f0 dd 32 3f 10 5c 2d bf
       0.148563 -0.401645 0.698699 -0.677186
000370 84 0f 45 3e 85 5b b6 3e 26 aa 1b c0 14 96 28 be
       0.192442 0.356167 -2.43226 -0.164635
000380 a8 70 9c be a1 14 2d 3e 45 83 34 3e 85 23 90 be
       -0.305547 0.169024 0.176282 -0.281521
000390 5f 95 7b be 88 2b 37 be 19 e7 3f be ea 6d 9d bd
       -0.245687 -0.178877 -0.187405 -0.0768698
0003a0 12 33 8b be 85 2d 51 3b a8 51 18 3e a8 37 23 be
       -0.271874 0.0031918 0.148749 -0.159392
0003b0 0d 38 9b be b6 64 f5 bd 5a a1 80 be 00 58 a8 bd
       -0.303162 -0.119821 -0.251231 -0.0821991
0003c0 0b 9a 46 3e f2 70 cc bc 0e a7 87 3d 30 2b 24 be
       0.193947 -0.0249562 0.0662366 -0.160321
0003d0 de 04 7f be 59 30 81 3e b4 3d 6a be 4b e4 82 3e
       -0.249042 0.252322 -0.228751 0.255648
0003e0 fe 81 92 be d2 c8 27 be 02 c3 c8 3d 29 37 c6 bd
       -0.286148 -0.163852 0.0980282 -0.0967849
0003f0 10 e6 56 be 87 17 74 be 46 b1 fc bd ca 36 70 3e
       -0.209862 -0.238371 -0.123385 0.234584

B2 f4 [32]
000000 88 d6 1a 3e 3b 16 c0 3c d8 96 c7 bb b9 06 bc bd
       0.151209 0.0234481 -0.00609098 -0.0918097
000010 1f bb 7b 3e 4a 19 02 bd 21 59 e0 bd 00 00 00 80
       0.245831 -0.0317624 -0.109545 -0.0
000020 a2 d5 91 3e 01 51 50 bd c9 cd ab 3d db 69 1b 3e
       0.284833 -0.0508585 0.0838886 0.151771
000030 0a e8 2f 3d 29 e7 0b 3e 00 00 00 80 9a ce d2 bb
       0.0429459 0.136624 -0.0 -0.00643332
000040 00 00 00 80 5b 75 42 bd 94 83 89 3e ed 0d 5e 3e
       -0.0 -0.0474752 0.268582 0.21685
000050 00 00 00 80 01 bf 86 3e 88 e6 80 bd 00 00 00 80
       -0.0 0.263176 -0.0629397 -0.0
000060 75 8f ec 3d d7 79 65 bc 28 9c 6d 3e c9 c9 c4 bb
       0.115508 -0.0140061 0.232041 -0.0060055
000070 29 04 02 3e 72 32 99 3e 44 fd be 3e 75 3e fc bc
       0.126969 0.299213 0.373026 -0.0307915

W3 f4 [1, 32]
000000 e0 72 2b bc 28 0c eb 3a ac ba dc 3b 0a a7 cd 39
       -0.0104644 0.00179327 0.00673612 0.000392251
000010 98 37 62 3b e6 0c a0 3b fd 24 6b bb 92 0b 0c bb
       0.0034518 0.00488435 -0.00358802 -0.00213692
000020 12 61 4b bb ae a4 70 bc 98 46 5d 3b 7f da c9 ba
       -0.00310332 -0.0146877 0.0033764 -0.00154002
000030 1e 26 2b bc e9 82 d5 3c 77 80 2b bb c8 50 02 3c
       -0.0104461 0.0260634 -0.00261691 0.00795383
000040 a7 2a e5 bb f9 56 9a bc e1 b0 17 bc d9 72 b2 bb
       -0.00699361 -0.0188403 -0.00925848 -0.00544582
000050 ea 13 6d 3b c9 7d 61 bc c4 28 46 bb c4 1b c2 3b
       0.00361752 -0.0137629 -0.00302367 0.00592372
000060 1d 31 44 3c 3c dc cc 3a db f7 c9 3b 46 fe cb 3b
       0.0119746 0.00156296 0.00616358 0.00622538
000070 0d 12 47 bc cb bf 71 3c b2 b3 cf 3a a9 71 29 3b
       -0.0121503 0.0147552 0.00158464 0.00258551
